test weights.npz (npz, 2024 bytes, 3 tensors)

weights_0_1 f8 [9, 9]
000000 44 5f d7 e5 85 f8 eb bf 64 50 e5 5a c3 d6 e2 bf
       -0.8740872849548187 -0.5887161994273922
000010 68 4f eb 90 ea 52 b5 3f be be 4d f0 e9 08 f2 bf
       0.08329645193162849 -1.1271762263167342
000020 19 41 91 25 e1 55 dd 3f d4 f6 e6 1e ad 3e e5 3f
       0.45836666744891513 0.6639009097632091
000030 50 93 5d 9c e3 51 bc bf 82 35 39 26 ee 24 eb 3f
       -0.11062452857511329 0.8482580896904184
000040 32 2c 66 33 20 2a eb bf b9 ae 1f d9 31 f7 c4 bf
       -0.8488923076523689 -0.16379378415819248
000050 36 35 28 68 f9 20 e7 3f 6b fa bc 73 a1 3e a7 bf
       0.7227751764600387 -0.04539970910854126
000060 41 67 07 bb 1d 7d e3 3f 21 cc 8d 38 84 98 e3 3f
       0.6090229657085972 0.6123677353447229
000070 b9 31 14 bc 71 25 e8 bf 9a dc 2c 83 ae 8a e8 3f
       -0.7545708344855974 0.7669289171234539
000080 39 71 9d 74 05 92 e6 3f 5d fa 9c ae 3c 64 d9 bf
       0.7053248670231717 -0.39674298336095665
000090 ec 17 8b 05 20 6a e0 bf 40 49 19 5c 61 bc f0 3f
       -0.5129547222393263 1.0459912870033605
0000a0 1a e0 15 8d 2b 62 f0 3f ba ac 15 81 15 fa e2 bf
       1.0239673148298665 -0.5930278321442508
0000b0 43 e6 ce 30 e8 34 cc bf 9e 93 06 bc 0f d6 f0 bf
       -0.2203645933457655 -1.0522610993150248
0000c0 43 d0 10 18 f1 a5 f0 3f bf 9f 30 ac 1b 34 d7 bf
       1.04051312828689 -0.3625554257910117
0000d0 d1 1e 65 08 6c 75 e6 3f 88 09 6d c1 1c 11 e0 bf
       0.7018337406124947 -0.5020889070367938
0000e0 34 a4 a1 87 34 72 d9 bf 0c c9 bd dc e7 1b e2 3f
       -0.3975955318952089 0.5659064589838478
0000f0 3a 4b 24 fa 11 b5 eb bf 18 cc 52 b0 2e e6 d5 bf
       -0.8658532987195493 -0.3421742174061264
000100 f4 bb 50 35 b1 a0 d4 3f 30 00 6e 04 8b 8c e1 bf
       0.3223078747423067 -0.5484061323659315
000110 7c 0d 84 d3 8e 12 d7 3f fe ab c5 62 4f 9a ef bf
       0.3605076852402005 -0.9875866822379746
000120 d8 24 f6 1d aa 5c ce 3f bf 6f d2 40 25 69 e0 bf
       0.23720289671863415 -0.5128351465277702
000130 48 91 23 47 5b 95 d1 3f 44 84 cb f0 e1 1d dc bf
       0.27474100062524487 -0.43932388796935506
000140 16 a2 36 23 e5 35 e2 bf c0 81 82 c9 5d b0 9a 3f
       -0.5690789878618172 0.02606340925615469
000150 08 d2 db d4 f1 75 e4 bf c0 7d d2 bc 2e 1c c9 bf
       -0.6393975407978028 -0.19617256374202263
000160 3c ea 69 44 13 bf eb bf 18 64 6b a8 73 8e c2 3f
       -0.8670746170240089 0.14497228358848768
000170 3e bf 85 7f 85 72 e3 bf 80 14 de f1 db 1c d4 3f
       -0.6077296724961128 0.31426142330048634
000180 de 81 0c 46 b2 cb df bf 6e 18 1f 2c ac b4 e4 bf
       -0.49680764046391157 -0.6470547544238465
000190 cc 45 10 3f 27 df d5 bf 91 ab 67 59 95 e7 ec 3f
       -0.3417451969008567 0.9032694574537904
0001a0 f6 74 c1 99 1d 56 ed 3f 87 54 7c f4 a3 35 e3 3f
       0.9167621615448798 0.6002979064093247
0001b0 df 9d 7c b7 17 24 ea 3f 02 7b cb 59 0c e5 c1 3f
       0.8169058402754067 0.13980249771608305
0001c0 45 2a 98 3a fa 0b e6 bf e7 45 56 4c f9 20 eb 3f
       -0.6889620918676164 0.847775124641143
0001d0 50 f5 f9 3a 71 5f f1 3f b2 84 c9 5f 4d 17 e4 3f
       1.0858013442769625 0.6278445120662097
0001e0 05 ee 3a ab 76 70 d4 3f 1d a4 11 3c 46 7b ec 3f
       0.3193642303628795 0.8900481389256388
0001f0 5f 24 92 9d 98 50 a0 3f 7c f7 80 33 10 84 bd bf
       0.03186489985916618 -0.1152963758222238
000200 75 f7 63 93 31 fd c1 bf 61 7a 48 20 99 37 f2 3f
       -0.14053935715486046 1.138573766809394
000210 7c 7f f6 0b 93 21 ce 3f f9 df ad 6f 3d 50 e4 bf
       0.23539960941434035 -0.6347949200853683
000220 1f ec 4e 37 01 95 e0 3f aa 4f 4b 38 da 37 ce 3f
       0.5181890564193771 0.2360794806360194
000230 3a bf 62 b4 67 97 d6 3f 31 5e 38 ce 19 5d e5 3f
       0.3529910337047003 0.6676148441064865
000240 bb 1c e4 ad a0 99 dc 3f c5 a6 d7 b2 2b e5 e8 bf
       0.4468766878275791 -0.7779749386802101
000250 1d f7 34 20 47 ec dc 3f 07 be 02 8f 68 83 e0 3f
       0.4519212545891252 0.5160410683801623
000260 c1 54 81 df c2 b4 e5 3f cb cf 47 a1 71 8e f0 bf
       0.6783155789695671 -1.0347763347644896
000270 52 6f 95 36 a7 ac b1 3f 56 1c e5 b9 42 01 ee 3f
       0.06904072840319245 0.9376538878212937
000280 67 a7 54 e8 b9 5a e3 bf
       -0.6048249757488805

weights_1_2 f8 [6, 10]
000000 46 d1 7c f9 09 a3 c2 3f b4 71 98 b0 b2 fc e4 3f
       0.14560055429468316 0.6558469246988836
000010 f5 f8 4b 50 d1 ae e1 bf d6 d3 8f 45 c0 c8 ef bf
       -0.552590042905449 -0.993255744803373
000020 fb 3e b4 ad e5 86 ce bf 40 9e 7e 29 65 ee b3 bf
       -0.23849173528332543 -0.07785637152721225
000030 e0 45 f0 bf 33 eb bd bf 2b 47 26 ea 0b 51 b1 3f
       -0.11687014995575096 0.06764292208233928
000040 4e 97 99 dc b5 59 de 3f 78 76 d1 85 ce a5 c5 3f
       0.4742254881187947 0.16912251981823423
000050 d7 94 c5 86 47 76 c6 bf 8c 6c 85 55 de 23 db 3f
       -0.1754846008363191 0.4240642390411231
000060 09 b6 c9 5e 5a db eb bf a0 96 83 28 39 3a bf bf
       -0.8705264903380235 -0.12198216666328188
000070 54 ef e9 de b5 e3 79 bf 09 f2 7d b0 5e d8 e1 bf
       -0.006320677216191079 -0.5576623389347911
000080 49 f8 c6 a2 f6 d3 b3 3f 8b 47 00 70 c1 2b f0 3f
       0.07745305513432856 1.0106825232546466
000090 cc d0 1b 91 16 9f d0 bf 59 57 6b f8 1a 90 d5 3f
       -0.25970997019545616 0.33692049274156016
0000a0 13 46 cc c4 24 8d de 3f 17 31 89 70 54 b5 df 3f
       0.47736472338246577 0.4954424952491236
0000b0 59 9b 40 c6 15 4d e8 bf c0 65 d1 0f 14 c2 92 3f
       -0.7594097969166383 0.01831847521348151
0000c0 dd 44 8d fd c7 9b db 3f 61 8b 87 60 2b 81 c2 bf
       0.4313831306545362 -0.14456693852761318
0000d0 08 19 c2 41 b1 b2 d8 bf 7a 8d a6 71 07 01 e4 3f
       -0.38590651914309193 0.6251256198633393
0000e0 bc 84 d3 d0 b5 07 e1 3f 0f 07 21 8d cd 22 e3 3f
       0.5321911886823254 0.5979984051157049
0000f0 dd 96 cf 4c eb 58 e1 bf d0 1e 59 a5 ab f8 e1 3f
       -0.5421043873036201 0.5616052846389383
000100 03 0b c9 40 00 28 e5 3f f0 ef 96 86 62 76 e4 bf
       0.66113293317207 -0.639451277609167
000110 53 9d 55 e3 c0 22 ee 3f 80 85 87 97 df c5 ca bf
       0.9417423668027517 -0.20916361712356135
000120 15 0f f4 9a c5 45 dc 3f 0f 8b a2 59 a4 84 a4 bf
       0.44175853855289066 -0.04007447809387631
000130 06 bc 13 35 c6 05 92 3f ce 6e 42 6d 2a 36 ed 3f
       0.017600152005737633 0.9128620275473283
000140 a0 1d c3 1a ff e6 e5 3f 95 42 5b e4 43 93 ef bf
       0.6844478151987694 -0.9867267093741982
000150 33 2d ac a8 4b d1 c2 3f f0 08 30 46 67 9c c2 bf
       0.1470121930691249 -0.14539805342798884
000160 84 57 04 b8 4f 2b c7 3f 02 ba 5b ab 6a 29 ed bf
       0.18100925908282417 -0.9113057467309889
000170 24 7f c0 be fb f1 df bf 1e b2 c4 6c e2 a3 b5 bf
       -0.4991444933711924 -0.08453192859151001
000180 91 cb ce cd b1 36 e3 bf d8 e7 85 c0 83 f4 bf 3f
       -0.6004265803988905 0.12482474756498563
000190 39 4e 93 eb be 8c e6 3f a3 3e 91 be ae c0 b0 bf
       0.7046808816034577 -0.06544010307811247
0001a0 44 a6 ef cd 8f d4 bb bf 00 b7 48 53 c4 69 93 bf
       -0.10871218469369476 -0.018958156188253916
0001b0 66 a4 18 aa 11 c8 e2 3f 0c eb d9 39 fe ef b5 3f
       0.5869224855606603 0.08569325363525254
0001c0 02 b8 40 ca 88 92 50 bf f7 2a 31 d3 45 e2 de bf
       -0.001011499008210404 -0.4825605928823928
0001d0 87 e3 9b 25 78 7e c9 bf 34 d8 10 0e 49 77 bc 3f
       -0.19917203747152376 0.11119515031245514

weights_2_3 f8 [2, 7]
000000 61 96 83 e3 84 e1 e2 bf 3d 38 3c 9d dc 10 bd 3f
       -0.5900291865952562 0.11353854025603112
000010 83 c7 3c 0a 04 07 db bf fa a3 cb 79 94 3d e4 3f
       -0.4223032093024061 0.632517087823657
000020 74 54 98 e2 66 49 d1 bf f7 e3 7a 5b e4 5f e8 bf
       -0.27010509613439315 -0.7617055689544249
000030 0a e3 bd 9e 53 63 d9 bf 8f cb ab fb 5f 3d cd 3f
       -0.39668741705058663 0.228435514341609
000040 7a 5d 41 25 f8 23 c6 3f 2f 78 20 bc c4 70 e6 3f
       0.17297269648654973 0.7012656854965423
000050 9a 08 07 8b ac 47 bb 3f 27 48 42 4b 26 1e dc bf
       0.10656240839219536 -0.4393401846838309
000060 32 3e 9e 88 25 06 e5 bf c6 99 f3 4a 03 e6 dc bf
       -0.6570003193209628 -0.45153887099732193
