test weights.npz (npz, 2024 bytes, 3 tensors)

weights_0_1 f8 [9, 9]
000000 b6 dd ae 4b a7 04 f0 3f 56 c0 6b 7a 7f 40 ac bf
       1.0011361080522483 -0.055179580396612124
000010 73 0b 4a c3 f7 3f ee bf 4d 50 cd 89 46 44 e7 bf
       -0.9453085722201265 -0.7270844165273133
000020 81 80 82 31 96 2a d3 3f ea b9 28 05 98 2b ee bf
       0.2994742854589348 -0.9428215122950949
000030 43 88 5f ad a2 01 f0 3f f2 93 cb 56 b0 eb ed 3f
       1.000399281729657 0.9350206084460508
000040 a1 1a 55 d9 25 91 91 bf cf 66 2b fe 76 fe c3 3f
       -0.01715525759689263 0.156203149896831
000050 a2 b5 b4 b2 c3 5b b5 3f e4 75 31 7b 27 6b bd bf
       0.08343146431862761 -0.11491629369398698
000060 2a b7 ae 38 0d 1c d0 bf ef f4 15 49 91 bf e2 bf
       -0.25171213660620373 -0.5858847072082919
000070 b1 67 8c 05 98 cd ea 3f 29 c6 5c 56 f0 1f e8 3f
       0.8375969036453538 0.7538987814679717
000080 b1 c7 f2 f3 9d 53 d2 bf bb c4 c6 b8 42 ec dd bf
       -0.28635357688028323 -0.46754520458768994
000090 32 cd 58 66 ff 57 d5 3f 20 67 a3 51 8e db d3 bf
       0.33349595064938165 -0.310275630688567
0000a0 00 86 54 c5 c9 e1 d5 bf ff 1b 10 1e 44 f7 cc bf
       -0.3419060160686911 -0.22629596202770583
0000b0 40 37 94 70 ae f7 cf bf d4 dd 75 2e be 2c d7 bf
       -0.24974613663692402 -0.3621058896746636
0000c0 27 71 4c 18 52 d8 c8 3f ec 5d 7f 99 40 56 ef bf
       0.19410158335166125 -0.9792788503645489
0000d0 20 bc cb 0b 4e 89 dd bf ca 2f d2 ff e0 f8 e2 bf
       -0.46150542404115136 -0.5928807255272599
0000e0 8c a2 87 d5 30 ff d5 bf 80 34 1f 03 fb ab a0 bf
       -0.34370060780069234 -0.032562107211199454
0000f0 82 dc c7 d0 f8 10 ea bf d8 c1 95 6a f7 8e e8 bf
       -0.8145717694996082 -0.767451961683089
000100 f2 5a 0a 8a 07 af ee bf 70 5b 65 b4 33 2d b3 3f
       -0.9588658996679824 0.07490847734639572
000110 9c 5b a0 2f 8e ce ec bf 66 76 86 fb 14 ed e1 3f
       -0.9002142839625438 0.5601906693079399
000120 40 e0 8b a4 b3 91 d4 bf d4 68 ed 43 77 7e d7 3f
       -0.32139292782767725 0.36709386476071626
000130 9c d4 51 e1 82 b1 cd bf ca 4b 38 56 c3 34 bc 3f
       -0.23197971345840507 0.11018010001161752
000140 d8 45 13 d8 f3 3a cc bf 5b 3d 1e 51 8b 61 e5 3f
       -0.22054908800650597 0.6681572517717699
000150 b3 0a 70 cf 30 97 da bf fe dd ec f4 98 63 d7 3f
       -0.4154779458769255 0.36545394819719934
000160 b6 28 65 c1 eb 46 ea 3f 95 1a 69 2a 6b 90 d6 3f
       0.8211573388337203 0.35256461278587753
000170 25 18 91 c7 a9 8a c8 bf 4a e6 5a ec 6b 82 eb 3f
       -0.19173166508170528 0.8596706024465643
000180 ce 5f f9 f2 8a 94 e1 bf 25 03 e9 97 8e 41 db 3f
       -0.5493826623523945 0.42587628207188494
000190 2c 9a a7 1b 5c e6 e9 3f 3e 19 77 c9 00 de ed bf
       0.8093700924044405 -0.9333499846332314
0001a0 ae d2 a4 d2 fb 48 a9 bf 4d cb 00 b2 77 43 f4 bf
       -0.0493849463113397 -1.2664715722318818
0001b0 87 4f 70 63 41 5d ef 3f b8 1a f4 a9 be 34 e6 3f
       0.9801337186968205 0.6939385718731819
0001c0 00 71 c5 74 3f 08 69 bf ef a4 86 37 26 0f b8 3f
       -0.003055690706032732 0.09398115974058262
0001d0 52 12 ef d4 7f 28 d3 bf 97 bc 85 9a 31 d6 d8 3f
       -0.299346883719669 0.38807334985808367
0001e0 22 51 97 ce b2 2b ed 3f 72 80 75 ce 57 33 ec 3f
       0.9115842852575364 0.8812674553301021
0001f0 c7 f5 ff f0 ec 55 da bf 6e 84 bc bc 9c a7 e1 bf
       -0.4114944795145132 -0.5517104803331117
000200 08 0c 72 ee a0 74 d2 3f e4 d7 31 9a 50 8a d5 bf
       0.28836844716732957 -0.33656706865383357
000210 3a 49 52 9f 03 41 e3 bf b0 e2 b5 bb 60 5a df bf
       -0.6016862975832631 -0.4898912270651108
000220 60 78 9f 66 12 c7 dc bf e0 77 45 dd c5 c3 d3 bf
       -0.4496503832032257 -0.30882403000384606
000230 aa 70 00 e1 fd 4b ef bf ac c4 ce 95 27 aa e6 bf
       -0.9780263323368861 -0.7082708288127342
000240 5d c5 6c 60 54 4b e0 bf 4c d6 75 f6 46 22 f2 bf
       -0.5091955073641362 -1.1333684565883173
000250 bc e8 52 65 14 b2 dc bf 2d 87 47 64 04 c7 e3 3f
       -0.4483691205492837 0.6180440863210827
000260 24 02 9c 49 a0 cb d5 3f 92 98 69 79 3b 65 cc bf
       0.3405533522455093 -0.22183936527580222
000270 35 77 a1 f9 21 51 e9 3f 33 29 fb 55 d7 4f ea 3f
       0.7911538959121801 0.8222462348287877
000280 3c 80 37 bf 7d 15 dd 3f
       0.4544367186881606

weights_1_2 f8 [6, 10]
000000 28 6a 4d 21 19 66 e6 3f f2 aa 64 c3 35 3a e4 bf
       0.6999631548345109 -0.6321057144426432
000010 3e 39 45 62 2d 2b e7 bf 5a 57 22 20 6e ac e0 bf
       -0.7240206641525118 -0.5210486056919124
000020 50 25 2a 81 9a 7c c9 bf 94 87 c9 1d bb e1 ed bf
       -0.19911509806505956 -0.9338050443441142
000030 ae 06 8a a6 5e 4b ea bf 68 5d 07 98 29 81 e8 bf
       -0.8217004063337379 -0.7657669038116355
000040 fe 2a fe 63 b2 29 e6 bf b4 e1 ee 47 4a fc d4 bf
       -0.6925899460778451 -0.3278985693428027
000050 6c 37 cd 82 4d 8d dc 3f 47 4b ae 0e 6c 19 d0 3f
       0.44612443708034877 0.2515516417853871
000060 82 a2 20 22 4f a4 e8 3f a2 ea b7 e4 00 97 eb 3f
       0.7700572649528825 0.8621830432087629
000070 c2 62 21 b5 19 d8 d2 3f 84 39 0b 85 33 74 ea 3f
       0.2944397229053203 0.8266847227585434
000080 98 5e d1 9b 0e ea ec bf c0 cc b7 91 63 40 a3 bf
       -0.9035714190785766 -0.03760062364372052
000090 00 5f 93 43 e0 1f e0 bf 1f 6b 27 31 52 2c e3 bf
       -0.5038911170804283 -0.5991602859533919
0000a0 4a 4b ea ca 4e 16 d6 3f 47 a4 cf a9 97 0b e7 3f
       0.34511155906618696 0.7201650921462112
0000b0 db 60 7c 50 9d 8f aa 3f b0 18 2f 0b 3b 4e cb bf
       0.051876941752370086 -0.21332490964977557
0000c0 8f b8 b9 aa da ba da 3f b9 ae fa 36 0f e0 f0 bf
       0.41765467331323064 -1.0547020099283329
0000d0 21 76 c2 07 80 e3 bf 3f 0c b3 a1 6f 9a 08 d6 bf
       0.1245651263183949 -0.3442751016762464
0000e0 ff 6c f8 2f f5 9f ec bf 1c 13 02 6c 08 30 ea 3f
       -0.8945260941431171 0.8183633908780368
0000f0 51 47 eb 08 ca 86 ed bf c6 62 9f b9 42 a0 ec 3f
       -0.9227037595939952 0.8945630670014786
000100 4f 10 13 17 2e 16 ec bf 46 37 59 18 b1 22 e4 3f
       -0.8777075243638225 0.6292348361546167
000110 a8 6b d2 ba b9 e4 ca 3f e9 6f 69 14 c9 42 ed 3f
       0.21010514852681905 0.914402522913858
000120 83 aa ce 9c 54 c3 e6 3f 7c 91 20 ab 1d 72 e6 bf
       0.7113440573351258 -0.701430162651874
000130 55 cd df a5 07 6d e2 3f 55 77 e4 67 50 3d ec 3f
       0.5758093108874315 0.8824846295499166
000140 68 9a 00 cd 25 fe d9 bf 2a fd b2 41 ad cb c7 3f
       -0.4061369420982488 0.1859032221600299
000150 00 40 30 1e 43 ad 74 3f e6 0e 3e c9 df 88 e2 3f
       0.00504804819048843 0.5792082720294871
000160 c9 ef 47 77 57 07 c7 3f cb 04 90 19 92 50 e8 bf
       0.17991154979961113 -0.7598352908391005
000170 78 b1 29 8d e9 57 e0 bf 4c be 3e ff 0f ec e8 3f
       -0.5107314831816856 0.778816221738404
000180 d0 94 91 1f 98 36 ef bf 7a 4b 84 01 a7 f8 d6 3f
       -0.9754143349242899 0.3589265360653183
000190 ed 26 68 0f 43 41 c0 3f 3a 73 ce 84 01 92 b2 3f
       0.1269916367748957 0.07254037372918001
0001a0 64 34 bd d9 be d0 eb bf c0 97 54 b3 c2 1c d1 bf
       -0.869231629630701 -0.2673804045938333
0001b0 a7 d1 95 b2 81 45 d5 3f 92 54 a8 fc 21 5a e1 3f
       0.33236734809841056 0.5422525343625628
0001c0 ea 56 78 c6 15 93 81 bf 70 af 8b 3a 3a 1a d2 3f
       -0.008581323737455421 0.2828507968649694
0001d0 91 d5 91 6f a0 87 e7 3f b3 bc 88 67 fc ad eb 3f
       0.7353059939475078 0.864988519873711

weights_2_3 f8 [2, 7]
000000 60 e2 2c 61 43 4f a5 bf db 2a 91 e2 89 12 d4 bf
       -0.04162035523626595 -0.3136315071648547
000010 dc 44 74 22 9c c1 e6 bf 20 dd 0e 33 f5 5a c5 3f
       -0.711134021085083 0.16683831208295263
000020 78 6f 6d 01 18 f3 a2 3f d1 06 11 54 52 a7 cd 3f
       0.037010908293011846 0.23166874985513755
000030 44 d6 b0 f3 ab 3a c7 3f f4 fa a0 b7 eb 38 d4 3f
       0.18147801779712058 0.3159741681337629
000040 c9 3d 08 7b b3 0f 53 bf 57 76 00 ef 71 84 f1 3f
       -0.0011634114017658895 1.094835218048862
000050 26 a4 39 7a 01 2c c7 3f 72 db 19 2d bf 5d d8 3f
       0.18103044956231534 0.38072184948344223
000060 a3 a7 53 36 f9 4f c7 3f 9d 76 1a 6e 01 8f ed bf
       0.1821280970828499 -0.9237067366081707
